DeepLearning/DeepLearning_Qyx/lec12-rnn-generation/gen_en.pt (torch, 443359 bytes, 6 tensors)

i2h.weight f4 [256, 307]
0	0xbed1311c	-0.4085778
1	0x3ceb6ae9	0.028737502
2	0xbe2a0501	-0.16603471
3	0x3e7a493d	0.24442
4	0xbf0d9fd4	-0.55322003
5	0xbf080678	-0.5313487
6	0xbf1967ce	-0.5992402
7	0xbe3ef1b3	-0.18646888
8	0xbff0bd70	-1.8807812
9	0x3e6d76fd	0.23189922
10	0xbeece9f5	-0.46272245
11	0x3cc35fe3	0.023849433
12	0xbea67e62	-0.32518297
13	0x3d72329a	0.05913029
14	0xbf2bfc02	-0.6718141
15	0x3dab5650	0.08366072
16	0x3a915cc4	0.0011090268
17	0x3e269d7b	0.16271012
18	0xbf08c7f2	-0.5343009
19	0x3e8bf067	0.2733185
20	0xbe5959bd	-0.21225639
21	0xbf536359	-0.8257347
22	0x3e36bedc	0.17846245
23	0xbd43a8f7	-0.04776856
24	0x3e305f86	0.1722394
25	0x3eb8258e	0.35966152
26	0xbf44a6cc	-0.7681701
27	0xbde30d24	-0.11086491
28	0x3ec6aaf2	0.38802296
29	0x3e4a3048	0.1974498
30	0x3e9c3c29	0.3051465
31	0x3e15ab34	0.1461609
32	0xbe8a2be0	-0.269866
33	0x3ecc48c8	0.39899278
34	0xbcdeac0c	-0.027181648
35	0xbdb7bfa4	-0.089720994
36	0xbe06c06c	-0.1315934
37	0xbd14ba27	-0.03631034
38	0x3eab60a0	0.33472157
39	0xbf0ba2ee	-0.54545486
40	0xbd150634	-0.03638287
41	0xbf2e5561	-0.6809903
42	0xbd7da881	-0.061928276
43	0xbecda00b	-0.40161166
44	0xbed08255	-0.40724435
45	0x3e5505ff	0.20803069
46	0x3e9d4b35	0.3072144
47	0x3e86eaaa	0.2635091
48	0x3e6dd00d	0.23223896
49	0x3eacba12	0.3373571
50	0x3ca5f59e	0.020258721
51	0xbe21bdf7	-0.15795122
52	0x3e873a1e	0.26411527
53	0x3e2f965b	0.171472
54	0xbeafb0b7	-0.3431451
55	0xbae5f51b	-0.0017544361
56	0xbd8170bf	-0.06320333
57	0x3e616834	0.22012407
58	0xbc7aa819	-0.015298867
59	0xbd264157	-0.040589657
60	0xbe00bdfb	-0.12572472
61	0x3e6014ef	0.21882986
62	0xbd079a23	-0.03310598
63	0x3c17dbcc	0.009268712
64	0xbcd51e27	-0.026015354
65	0x3e1c9eca	0.15294948
66	0xbe44a767	-0.19204484
67	0x3e519106	0.20465478
68	0xbe2fc102	-0.1716347
69	0x3da4b454	0.08042207
70	0x3b86cf3e	0.0041140607
71	0x3e9e5709	0.30925778
72	0x3db79f39	0.08965916
73	0xbd6d74a8	-0.05797258
74	0x3da21665	0.07914428
75	0xbe01a273	-0.12659626
76	0x3d9aa466	0.07550888
77	0xbe050ca4	-0.12993103
78	0xbd6d5c42	-0.057949312
79	0xbe03b89c	-0.12863392
80	0x3c153829	0.009107628
81	0x3e7256e8	0.23665965
82	0x3b97f2a3	0.004637079
83	0xbdecf7fd	-0.115707375
84	0xbd422903	-0.047402393
85	0xbe805633	-0.25065765
86	0xbd361769	-0.04445592
87	0x3ea7c887	0.32770178
88	0x3db29950	0.08720648
89	0x3d17d7a9	0.037070904
90	0x3cc62626	0.024188112
91	0x3e8942d2	0.26808792
92	0x3da9d5c9	0.082927294
93	0x3d309ab5	0.04311629
94	0xbe32c7af	-0.17458986
95	0x3e63281f	0.22183274
96	0x3e5896aa	0.21151224
97	0xbe8800e6	-0.26563185
98	0xbdb8d42c	-0.090248436
99	0x3e5b3a9b	0.21409075
100	0x3e2225c1	0.15834714
101	0xbeece433	-0.46267852
102	0xbd8cdd72	-0.06878175
103	0xbec6210e	-0.38697094
104	0x3e1f70ad	0.15570326
105	0x3d95dea2	0.073178545
106	0x3e952528	0.2912991
107	0xbd94bd8b	-0.07262715
108	0x3e89fc31	0.2695022
109	0xbd14922c	-0.036272213
110	0x3e4a0ab7	0.1973065
111	0xbe3ad29f	-0.18244408
112	0x3ddbb7bf	0.10728406
113	0x3db6cadb	0.0892541
114	0x3dba86f0	0.091077685
115	0xbcb2ba38	-0.021817312
116	0xbac696c0	-0.0015151128
117	0x3d987fea	0.07446273
118	0xbdb4b18e	-0.08822928
119	0xbe38cc98	-0.18046796
120	0x3c6ebe8e	0.014571799
121	0x3cb9c476	0.022676688
122	0x3e846623	0.25859174
123	0x3d1a11d2	0.03761465
124	0x3d528dd7	0.0514048
125	0xbe0127ea	-0.12612882
126	0x3e1f1ec0	0.15539074
127	0xbe3bd223	-0.1834188
128	0x3d25725c	0.040392265
129	0x3e373ad4	0.17893535
130	0x3e74fb7a	0.23924056
131	0x3e6cdee7	0.23131905
132	0xbe166cc5	-0.1468993
133	0xbcc2175b	-0.023692777
134	0x3cdd1a39	0.026990043
135	0xbe2d8d4b	-0.1694843
136	0xbdc53c40	-0.096306324
137	0x3e08058b	0.13283364
138	0x3e00d90a	0.12582794
139	0xbd4553a3	-0.048175465
140	0xbdee4f78	-0.11636251
141	0xbcc99218	-0.024605796
142	0x3deff54d	0.11716709
143	0x3ca09d64	0.0196063
144	0x3eb5852f	0.35453174
145	0xbe7c0465	-0.24611051
146	0xbd714eba	-0.05891297
147	0xbefbe3d2	-0.4919725
148	0xbc9f376f	-0.019435612
149	0xbe180346	-0.14844999
150	0xbd2a4736	-0.04157182
151	0xbdcfecbe	-0.10152577
152	0x3d635ab7	0.055506434
153	0x3e80a324	0.25124466
154	0x3e34a511	0.17641093
155	0xbe291121	-0.1651044
156	0xbdafe0ee	-0.08587824
157	0xbe2092d4	-0.1568101
158	0xbe392959	-0.18082179
159	0x3d8cc91b	0.06874295
160	0x3e08457c	0.13307756
161	0xbd82d68a	-0.06388576
162	0x3e0b43b2	0.13600042
163	0x3dc46af3	0.095907114
164	0x3dab6073	0.083680056
165	0xbc81cdb9	-0.015845167
166	0xbe68a88d	-0.22720547
167	0xbe67a05d	-0.22619767
168	0x3e3339df	0.17502545
169	0x3ddf6cdf	0.109094374
170	0x3ea82eb4	0.32848132
171	0xbe23fa3f	-0.1601343
172	0xbe2ecaf8	-0.17069614
173	0xbbe429c0	-0.006962985
174	0xbec4c69e	-0.38432783
175	0xbe7a0046	-0.24414167
176	0xbe5b14ca	-0.21394649
177	0x3c203008	0.009777077
178	0x3dc531d7	0.09628647
179	0x3e493155	0.19647725
180	0xbcea8963	-0.028629964
181	0x3d46594a	0.048424996
182	0x3e0c7ffd	0.13720699
183	0x3e097e16	0.13427004
184	0xbee8be66	-0.45457762
185	0x3cceaa26	0.025227617
186	0xbe26e6c2	-0.16298965
187	0xb7e2860d	-2.7003722e-05
188	0x3e3266c8	0.1742202
189	0xbe3bae00	-0.18328094
190	0x3d24a478	0.040195912
191	0xbe999d21	-0.30002692
192	0x3cc24c55	0.023718039
193	0x3eac9c9e	0.3371324
194	0xbe1b7b1d	-0.15183683
195	0x3ea0e82e	0.3142714
196	0xbe17bd4e	-0.14818308
197	0xbdb08625	-0.08619336
198	0x3e81a5b4	0.25321734
199	0x3e212c75	0.15739615
200	0x3e3e5ece	0.18590853
201	0xbc16d98f	-0.009207143
202	0xbd19bbbf	-0.037532564
203	0xbcbedb2c	-0.023297869
204	0xbde049fe	-0.10951613
205	0xbdccfcff	-0.10009193
206	0xbe0e2888	-0.13882649
207	0x3ed17031	0.40905908
208	0x3c0578f2	0.008146511
209	0xbcc6d227	-0.02427013
210	0x3d0d47f0	0.034492433
211	0xbcf1c507	-0.029512895
212	0x3d67bef6	0.0565786
213	0x3c846034	0.016159154
214	0x3dd98153	0.1062037
215	0xbd6acc63	-0.057323825
216	0x3d9ed920	0.07756257
217	0xbb1bba5b	-0.00237622
218	0x3cc53311	0.024072202
219	0x3cd00895	0.025394717
220	0x3cf40ad8	0.029790327
221	0xbdd69846	-0.104782626
222	0x3da7af6d	0.08187757
223	0xbe4b57d5	-0.19857724
224	0x3e554d01	0.20830156
225	0xbd87e759	-0.06635923
226	0x3e045185	0.12921722
227	0xbd69bf6c	-0.05706732
228	0xbddc5af0	-0.107595325
229	0xbc507a29	-0.012724438
230	0x3e4ebb96	0.20188746
231	0x3db88d4b	0.090113245
232	0xbdfc251e	-0.12311767
233	0xbe01e41a	-0.1268467
234	0xbdfbf62e	-0.123028144
235	0xbd8001d1	-0.062503465
236	0x3df3b527	0.118997864
237	0x3e47145a	0.19441357
238	0xbdda72f9	-0.106664605
239	0xbdf7dc3f	-0.121025555
240	0x3df1e337	0.11810916
241	0x3dd189b5	0.10231344
242	0x3e101800	0.14071655
243	0x3eb09f8e	0.3449673
244	0xbe018c99	-0.1265129
245	0xbdf5881a	-0.1198885
246	0xbcd9a6b7	-0.026568754
247	0xbde2a36c	-0.110663265
248	0xbd883303	-0.06650355
249	0xbd4d0465	-0.05005302
250	0xbe2e0fd0	-0.1699822
251	0x3dc54201	0.0963173
252	0x3e275380	0.16340446
253	0xbe1d27d7	-0.15347229
254	0x3c286fe9	0.010280588
255	0xbede0fa3	-0.43371305

i2h.bias f4 [256]
0	0xbe3af995	-0.1825927
1	0xbe8b6bfd	-0.27230826
2	0xbd09a7ba	-0.033607222
3	0xbea434dd	-0.3207158
4	0xbe09ec7d	-0.1346912
5	0xbd94a7ef	-0.07258593
6	0xbd54bded	-0.05193894
7	0xbd7bd795	-0.061484892
8	0xbcd904e5	-0.026491592
9	0xbdaa6ec0	-0.08321905
10	0xbead6d77	-0.33872578
11	0xbe6a5d8a	-0.22887245
12	0xbe0a2f2b	-0.13494556
13	0xbd8a02fe	-0.06738852
14	0xbe90c7d6	-0.28277463
15	0xbe531637	-0.20613943
16	0xbd254215	-0.040346224
17	0x3db5af37	0.0887131
18	0xbde54c42	-0.11196186
19	0xbd8c0ac2	-0.068379894
20	0xbd9eb671	-0.07749642
21	0x3dd0b42a	0.101906136
22	0x3e0f3635	0.13985522
23	0xbe004efc	-0.1253013
24	0xbe300c83	-0.17192273
25	0xbe808937	-0.25104687
26	0xbe9daeaa	-0.3079732
27	0x3da30c7f	0.07961368
28	0x3d5eea55	0.054422695
29	0xbd639f3c	-0.05557178
30	0xbddbd658	-0.10734242
31	0xbd79d2bb	-0.060991984
32	0xbe1bf7a8	-0.15231192
33	0xbe224db8	-0.1584996
34	0xbe17b92c	-0.14816731
35	0xbd42e5e1	-0.04758251
36	0xbde3271a	-0.110914424
37	0x3d936c96	0.071984455
38	0xbdca5eb6	-0.09881346
39	0xbcb7223e	-0.022355195
40	0xbe2cd5d1	-0.1687844
41	0xbd0e878c	-0.034797236
42	0xbd744d43	-0.059643995
43	0xbd0ff55d	-0.035146106
44	0xbdf58c9c	-0.1198971
45	0xbda10dee	-0.07863985
46	0x3df41a54	0.11919084
47	0xbdbabe39	-0.09118313
48	0xbc2b5734	-0.010457803
49	0xbe47bbc8	-0.19505227
50	0xbe832fa6	-0.2562229
51	0xbe0d5a96	-0.13804087
52	0xbe14ee79	-0.14544095
53	0xbd2cbfd6	-0.042175137
54	0xbe5be884	-0.21475416
55	0xbe0f0c61	-0.13969566
56	0xbe6b95fd	-0.23006435
57	0xbe191292	-0.1494849
58	0x3e2e09da	0.16995946
59	0xbc3b02ed	-0.011414272
60	0xbd8c4f0c	-0.068510145
61	0xbe1bb424	-0.15205437
62	0xbe40bcc2	-0.18822005
63	0xbdd5498e	-0.1041442
64	0xbe94c58b	-0.29056963
65	0xbe92a52f	-0.2864165
66	0xbdc4d03b	-0.09610029
67	0xbe85e7c8	-0.26153398
68	0xbdad32f9	-0.08456988
69	0xbd1c2516	-0.038121305
70	0xbd32da18	-0.04366502
71	0xbe331d81	-0.17491724
72	0xbe151754	-0.1455968
73	0x3dcd4649	0.100231715
74	0xbe1e57eb	-0.15463226
75	0x3d94647f	0.072457306
76	0xbe517cb6	-0.2045773
77	0xbe44a8fa	-0.19205084
78	0xbd4dda02	-0.050256737
79	0xbd50a56e	-0.050939016
80	0xbe2ff246	-0.17182264
81	0xbe17795e	-0.14792392
82	0x3d4e44d2	0.0503586
83	0xbe47a14c	-0.19495124
84	0xbe602848	-0.21890366
85	0xbde8a08b	-0.11358746
86	0xbe21a8d6	-0.15787062
87	0xbdde810a	-0.10864456
88	0xbeb1c879	-0.3472326
89	0xbdd359dd	-0.103198744
90	0xbcab2a20	-0.02089411
91	0xbda5b131	-0.08090437
92	0xbe5f0774	-0.21780187
93	0xbe246765	-0.16055067
94	0xbe3df5bf	-0.18550776
95	0xbda55c0a	-0.08074196
96	0xbda8a8ee	-0.08235346
97	0x3d6a4a46	0.05719974
98	0xbe088ed1	-0.1333573
99	0xbda34767	-0.07972603
100	0xbe24d802	-0.16098025
101	0xbd47499d	-0.048654187
102	0xbd845c00	-0.0646286
103	0x3e4758ee	0.19467518
104	0xbd6ee2fa	-0.05832193
105	0xbe09791a	-0.13425103
106	0xbe520d5f	-0.20512913
107	0xbe03aac9	-0.12858118
108	0x3e233280	0.15937233
109	0xbda987d5	-0.08277861
110	0xbe398509	-0.18117155
111	0xbea21bce	-0.31661838
112	0xbc959667	-0.018260194
113	0xbdf83042	-0.121185794
114	0xbe028b6a	-0.12748495
115	0x3d9d1a21	0.07670999
116	0xbe103c50	-0.14085507
117	0xbdbf3085	-0.09335426
118	0xbd03f811	-0.032218996
119	0xbe81a32a	-0.25319797
120	0xbde8cdc4	-0.11367372
121	0xbd026145	-0.031831045
122	0xbe6228e0	-0.22085905
123	0xbe0d608d	-0.13806362
124	0x3e242a57	0.16031776
125	0xbd482a15	-0.048868258
126	0xbdb53e17	-0.08849733
127	0xbe47dc74	-0.1951769
128	0xbda2d365	-0.079504766
129	0xbe856867	-0.26056215
130	0x3dffafe5	0.12484721
131	0xbe1edaad	-0.15513106
132	0xbe1a4bf9	-0.15068044
133	0xbe0e2bc9	-0.1388389
134	0xbce25fee	-0.027633633
135	0xbe1e34a5	-0.1544977
136	0xbd72661d	-0.059179414
137	0x3c5015ee	0.012700541
138	0x3e0c38c0	0.13693523
139	0xbd9f1e59	-0.0776946
140	0xbe7d3345	-0.24726589
141	0xbe156ba9	-0.1459185
142	0xbe0e3062	-0.13885644
143	0xbe466093	-0.19372778
144	0xbdb87bb7	-0.09007972
145	0xbebed0f3	-0.3726879
146	0x3cd39c32	0.025831316
147	0xbe245b77	-0.16050516
148	0xbca1b209	-0.019738214
149	0xbdebdbdb	-0.115165435
150	0xbd83d7f5	-0.06437675
151	0xbe25baa1	-0.16184475
152	0xbdc3ed98	-0.09566802
153	0xbe4f341d	-0.20234723
154	0xbce35932	-0.027752493
155	0xbdffa3c1	-0.124824055
156	0xbe392424	-0.18080193
157	0xbdb4576d	-0.08805738
158	0xbb311716	-0.0027021817
159	0x3d8c5026	0.068512246
160	0xbd8b2d2d	-0.06795726
161	0xbe9b2cd6	-0.30307645
162	0xbd726134	-0.05917473
163	0xbb09b05e	-0.0021009664
164	0xbe7c0499	-0.24611129
165	0xbddb1771	-0.106978305
166	0xbd34119d	-0.04396211
167	0xbe880335	-0.26564947
168	0x3c93d0a0	0.018043816
169	0xbdfdcbf2	-0.12392415
170	0xbdd3c5e1	-0.10340477
171	0xbc8187fc	-0.015811913
172	0xbd1badf2	-0.038007684
173	0xbebb1631	-0.36540368
174	0xbdb93287	-0.090428405
175	0xbddf635a	-0.10907622
176	0x3c372173	0.0111774085
177	0xbbda1a72	-0.0066559846
178	0xbe32181a	-0.17392007
179	0x3e258d90	0.16167283
180	0x3e032e86	0.12810716
181	0xbe198939	-0.14993753
182	0xbe127cb6	-0.14305386
183	0xbe08cca6	-0.13359317
184	0xbd0ba59f	-0.034093495
185	0x3d3d07e7	0.046150114
186	0xbd3f4e64	-0.04670562
187	0xbd5a9c48	-0.053371698
188	0xbd764df5	-0.06013294
189	0xbdacb83a	-0.08433576
190	0x3e319e17	0.17345463
191	0xbcbbb205	-0.022912035
192	0xbe00b73f	-0.12569903
193	0x3de48fe0	0.111602545
194	0xbcb608ef	-0.022221057
195	0xbdaaceeb	-0.08340248
196	0xbe77015a	-0.2412161
197	0xbd56e199	-0.05246124
198	0xbd95f7ef	-0.0732268
199	0x3da3e895	0.08003346
200	0xbe5ab72c	-0.21358937
201	0xbd94c831	-0.07264746
202	0xbd68ef4c	-0.056868836
203	0x3e00ceae	0.12578842
204	0xbee6619d	-0.44996348
205	0xbe4de0e2	-0.20105317
206	0xbe19d5e5	-0.15023
207	0xbdd8f050	-0.10592711
208	0xbe820670	-0.25395536
209	0xbe799a93	-0.24375372
210	0xbe10f603	-0.14156346
211	0xbc8cc1ce	-0.017182257
212	0xbe955bbc	-0.2917155
213	0xbd5b39fa	-0.053522088
214	0x3d581f34	0.052764133
215	0xbd0242fa	-0.031802155
216	0xbe38aa75	-0.18033774
217	0xbe295a8c	-0.16538447
218	0xbe6499aa	-0.22324243
219	0xbd0ebb17	-0.03484639
220	0x3bba07b0	0.005677186
221	0xbd2f198c	-0.042748973
222	0xbed005ca	-0.40629417
223	0xbe245c13	-0.16050749
224	0xbd6de545	-0.058079977
225	0xbdf159f5	-0.11784736
226	0xbd5f3390	-0.054492533
227	0x3d8b9d33	0.06817093
228	0xbd93e0ac	-0.07220587
229	0xbe33ceac	-0.17559308
230	0xbd10228d	-0.0351892
231	0xbcaeec82	-0.02135301
232	0xbd990a7a	-0.07472701
233	0x3d6af0ac	0.05735843
234	0xbddf1a24	-0.10893658
235	0xbe2b630b	-0.16737
236	0xbe899dce	-0.26878208
237	0xbdfa9e9c	-0.122372836
238	0xbdbe2625	-0.09284619
239	0xbe0cb214	-0.13739806
240	0xbeb8b635	-0.36076513
241	0x3e01cb3b	0.12675183
242	0x3dd889c2	0.1057315
243	0xbd9a0399	-0.075202174
244	0xbe638bd0	-0.22221303
245	0xbdacb971	-0.08433808
246	0xbe43bb15	-0.19114335
247	0xbc51c5da	-0.012803519
248	0xbd13f88e	-0.036125712
249	0xbdf29af2	-0.1184596
250	0xbd148664	-0.036260977
251	0xbd8e5aa3	-0.06950881
252	0xbe5ba69b	-0.21450274
253	0xbe0f0b32	-0.13969114
254	0xbc793e9c	-0.015212681
255	0xbde8eecf	-0.11373674

i2o.weight f4 [51, 307]
0	0x3d027dca	0.031858243
1	0x3d12de21	0.03585637
2	0x3be594a8	0.0070062466
3	0x39827280	0.0002488084
4	0xbc625ca0	-0.013816029
5	0xbd0e4175	-0.034730393
6	0x3c495b26	0.012289798
7	0xbd3cfa26	-0.046136998
8	0x3d02122e	0.03175562
9	0xbcb7b3fa	-0.022424687
10	0x3d0da12c	0.034577534
11	0x3cc8962d	0.024485672
12	0x3d03cde3	0.03217877
13	0x3c1863ec	0.009301167
14	0xbd5ade05	-0.05343439
15	0x3d3006cf	0.042975243
16	0xbb6591d0	-0.0035029538
17	0x3cf7232f	0.030168144
18	0xbd26b886	-0.04070332
19	0xbcdcf981	-0.026974441
20	0x3d0733e4	0.03300847
21	0x3c94e07f	0.018173454
22	0xbd32e78c	-0.04367785
23	0xbc699160	-0.0142558515
24	0xbc0a9bdc	-0.008460011
25	0x3c194594	0.009354968
26	0x3c724314	0.0147865005
27	0xbd4ed90f	-0.050499972
28	0x3d15cdd0	0.03657323
29	0x3d2453b3	0.040118884
30	0x3c8b792a	0.017025549
31	0xbd5835c4	-0.05278565
32	0xbd10fe00	-0.035398483
33	0xbd4670fa	-0.048447587
34	0xbca19f44	-0.019729264
35	0x3d296434	0.041355327
36	0xbcf210b2	-0.029548977
37	0xbd4054ac	-0.04695575
38	0x3c4c70ec	0.012478095
39	0xbcc937f0	-0.024562806
40	0xbd1b1fb8	-0.037872046
41	0x3aa88460	0.0012856834
42	0x3c660944	0.014040295
43	0xbac75cc0	-0.0015210137
44	0xbc9625a2	-0.018328492
45	0x3cd7bd45	0.026335368
46	0x3d3626b0	0.04447049
47	0x3d5a28ce	0.05326157
48	0x3b889128	0.0041676946
49	0xbd59ef3e	-0.053206675
50	0x3d19fb2b	0.037593048
51	0xbcc5bad8	-0.024136946
52	0x3c1d38e1	0.0095960805
53	0xbd1210c1	-0.03566051
54	0xbd24b3e6	-0.040210627
55	0x3be88d37	0.0070969122
56	0x3c983bb7	0.018583162
57	0xbc1c8c40	-0.009554923
58	0xbd7c7d71	-0.061643068
59	0x3cdac90e	0.026707198
60	0xba299e47	-0.00064704235
61	0xbd6bd530	-0.05757636
62	0x3d02016a	0.03173963
63	0x3c350afd	0.011049983
64	0xbd83ed4a	-0.06441744
65	0xbc8e335a	-0.01735847
66	0x3c5f56e5	0.013631557
67	0xbd3c80bf	-0.04602122
68	0x3b544933	0.0032392263
69	0xbd326ed1	-0.043562714
70	0xbd43e2aa	-0.047823586
71	0xbc8d0d27	-0.017218186
72	0xbd51655c	-0.051122054
73	0xbd2b63c7	-0.041843202
74	0xbd0643cf	-0.03277951
75	0x3c75a7df	0.014993637
76	0xbbdb159c	-0.0066859256
77	0xbd81e640	-0.06342745
78	0x3c4c9974	0.012487758
79	0x3c49ef5e	0.012325136
80	0xbcc014de	-0.02344745
81	0x3d1363ef	0.035983976
82	0x3bad5a5b	0.005290312
83	0x3ccf3020	0.025291502
84	0xbd113fd8	-0.035461277
85	0xbd5f2418	-0.05447778
86	0x3d38276d	0.044959474
87	0x3d17c439	0.037052367
88	0x3c3a6bd6	0.011378249
89	0x3bc13311	0.00589598
90	0x3cce98df	0.025219379
91	0xbd4f0f6c	-0.050551817
92	0xbd0f82a7	-0.03503671
93	0x3d202483	0.03909732
94	0x3d225ad3	0.039637398
95	0xbbe7c712	-0.0070732916
96	0x3cf341a0	0.029694378
97	0xbd16e5ec	-0.036840364
98	0xbd26eb1e	-0.04075157
99	0xbd7261d6	-0.059175335
100	0xbc097206	-0.008389002
101	0xbd3a1ec5	-0.0454395
102	0xbd862c13	-0.06551375
103	0xbd2f5105	-0.042801876
104	0x3c095bad	0.008383674
105	0xbb53708b	-0.0032263126
106	0xbd0a1e08	-0.033720046
107	0xbc6ec62c	-0.014573615
108	0x3c4cac3f	0.012492239
109	0xbca8b881	-0.02059579
110	0xba8eeba4	-0.0010903967
111	0xbcc2021a	-0.023682643
112	0xbc93c14e	-0.01803651
113	0xbcd471e6	-0.025933217
114	0xbd966825	-0.07344083
115	0x3c2ca30e	0.010536922
116	0x3c43bfcc	0.011947583
117	0x3cae6353	0.021287596
118	0xbc3c3913	-0.011488217
119	0xbd08e302	-0.033419617
120	0x3c16a629	0.009194889
121	0xbd81b13a	-0.063326314
122	0xbc2ad853	-0.010427552
123	0x3bf18043	0.0073700263
124	0x3cc19c40	0.023634076
125	0xbcac7801	-0.021053316
126	0xbd349871	-0.044090692
127	0xbd95a170	-0.073061824
128	0xbc46f0c2	-0.012142362
129	0x3d2f7e9c	0.042845353
130	0x3c809a72	0.015698645
131	0xbb40fd30	-0.0029447787
132	0xbd3b3b07	-0.04571059
133	0xba059c68	-0.0005096854
134	0xbd5a7ae8	-0.05333987
135	0xbd259d03	-0.04043294
136	0xbc65b669	-0.014020541
137	0xbd3bc77e	-0.045844547
138	0xbb5227e4	-0.0032067234
139	0xbcf38e92	-0.029731069
140	0x3c724328	0.014786519
141	0x3d14d587	0.036336448
142	0x3ca2de9e	0.019881543
143	0xbca7fba4	-0.020505734
144	0x3ca550df	0.020180164
145	0xbd5a20fb	-0.05325411
146	0x3d14bd02	0.036313064
147	0x3cabc266	0.02096672
148	0xbd3a1396	-0.045428835
149	0xbd450940	-0.048104525
150	0xbb916c66	-0.004437971
151	0xbd74cd3d	-0.059766043
152	0x3cead9bd	0.028668279
153	0xbd986dfe	-0.07442854
154	0xbd7d08e3	-0.061776053
155	0xbd05e0cb	-0.032685082
156	0x3d2595fe	0.040426247
157	0x3cc09220	0.023507178
158	0xbd3c1cf0	-0.045926034
159	0xbd6824b4	-0.056675628
160	0x3c2ebf39	0.010665708
161	0x3c8202dc	0.015870504
162	0xba9999b1	-0.0011718777
163	0xbd31a99b	-0.04337464
164	0xbcce6025	-0.02519233
165	0xbbdd6791	-0.006756731
166	0xbccc95df	-0.024973808
167	0x3cf4506e	0.029823508
168	0xbc0c9722	-0.008580955
169	0xbcabf55b	-0.020991018
170	0xbc64f7dd	-0.013975111
171	0x3c4d0638	0.01251369
172	0xbbf2424b	-0.0073931566
173	0xbd831fe1	-0.06402565
174	0xbd56b49b	-0.052418333
175	0xbd2517a8	-0.040305763
176	0x3d356632	0.044286914
177	0xbc463a10	-0.012098804
178	0x3ce6d78a	0.028178949
179	0x3b03254a	0.002001124
180	0x3cac4dc8	0.021033183
181	0xbc6a6162	-0.014305444
182	0xbbd84160	-0.00659959
183	0x3b84fb8b	0.0040583066
184	0xbd48885c	-0.048958167
185	0xbd744f62	-0.059646018
186	0x3ccf9505	0.025339613
187	0xbc818aa5	-0.015813181
188	0x3d0fde48	0.035124093
189	0xbd6f51b5	-0.05842753
190	0xbd479c69	-0.04873315
191	0xbc9f118d	-0.019417549
192	0xbcdd5e29	-0.027022438
193	0x3d13f9b6	0.036126815
194	0xbd41bb53	-0.047297787
195	0xbc942bc1	-0.01808727
196	0x3c9210e1	0.017830314
197	0xbd5543bd	-0.052066553
198	0xbd953b27	-0.07286673
199	0x3d17a2e6	0.037020586
200	0x3caee1a9	0.021347838
201	0xbc3687db	-0.011140789
202	0x3ce9db67	0.028547002
203	0xbc0db245	-0.00864846
204	0xbd3d9a09	-0.046289477
205	0xbd26bb97	-0.040706243
206	0x3d2d0be4	0.042247668
207	0xbd4f53a2	-0.050616868
208	0xbd2aa642	-0.041662462
209	0xbd265120	-0.04060471
210	0x3d21bc17	0.039486017
211	0x3cce7a09	0.025204675
212	0xbd466771	-0.048438493
213	0x3c636bb5	0.01388066
214	0x3d13d3a8	0.036090523
215	0xbda64349	-0.081183024
216	0xbd10edb7	-0.035382953
217	0x3cba1f18	0.022719905
218	0xbd9fcdb1	-0.078029044
219	0xbcc4bb3c	-0.024015062
220	0xbc30292f	-0.010752006
221	0xbac45a29	-0.0014980483
222	0x3c78dcef	0.015189393
223	0xbd64bdc6	-0.055845045
224	0xbd67810a	-0.056519546
225	0x3cbe27ca	0.023212332
226	0xbd0db32e	-0.034594707
227	0xbd061225	-0.032732148
228	0xbdaae47b	-0.083443604
229	0x3b58fb27	0.0033108683
230	0x3c5c1bb3	0.013434338
231	0xbd22b24d	-0.039720822
232	0xbd0daac1	-0.03458667
233	0xbd0819cc	-0.033227727
234	0xbc3b15da	-0.011418784
235	0x3bd461ab	0.0064813695
236	0x3cec497a	0.02884363
237	0x3ced2ee5	0.028953025
238	0xbd23e61c	-0.04001437
239	0x3c809217	0.015694661
240	0x3b6e5e90	0.0036372282
241	0xbca881c9	-0.020569699
242	0x3d099672	0.03359074
243	0x3b22538e	0.002476904
244	0xbd1875c0	-0.03722167
245	0x3c681502	0.014165165
246	0x3d269a37	0.040674414
247	0x3c63e80d	0.013910306
248	0xbd2bf4b9	-0.041981433
249	0x3cb50812	0.022098575
250	0xbcb7c3d0	-0.022432238
251	0xbd6e7629	-0.058218155
252	0xbd7ea784	-0.062171474
253	0xbbc449c8	-0.0059902407
254	0xbd6e6feb	-0.058212202
255	0x3beb76bf	0.0071857865

i2o.bias f4 [51]
0	0xbd70d4d1	-0.058796708
1	0x3b20c854	0.0024533467
2	0xbe48edf7	-0.19622026
3	0x3e82c3ab	0.25539908
4	0x3dcae358	0.09906644
5	0xbd321640	-0.04347825
6	0xbe0b8f97	-0.13628994
7	0xbc394711	-0.011308447
8	0x3d0dac1f	0.034587976
9	0x3df25d36	0.11834185
10	0x3d08b29a	0.033373453
11	0xbd852990	-0.06502068
12	0xbd40499a	-0.046945192
13	0xbd5c761c	-0.053823575
14	0xbcc28ad6	-0.023747843
15	0xbdc9ed95	-0.09859768
16	0xbcd14caf	-0.02554926
17	0xbd754de2	-0.059888728
18	0xbd80bef4	-0.062864214
19	0xbd0f112f	-0.034928497
20	0x3dba3f41	0.09094096
21	0xbd9bd034	-0.07608071
22	0xbdf8c5c9	-0.121470995
23	0xbe59ad6d	-0.21257563
24	0xbc9ce2aa	-0.01915105
25	0x3cb53e10	0.02212432
26	0xbc1c440d	-0.009537709
27	0xbd885959	-0.06657667
28	0xbdd56e7d	-0.104214646
29	0xbc20192a	-0.009771625
30	0xbc88aea1	-0.016684832
31	0xbdd27599	-0.10276336
32	0x3d30a3d5	0.043124992
33	0xbe2d64c5	-0.16932972
34	0xbd28de9b	-0.041227918
35	0xbe6a6f2d	-0.22893973
36	0xbbdc3670	-0.0067203566
37	0xbabb5c1b	-0.0014294417
38	0xbc8b6778	-0.017017111
39	0x3dcffef0	0.10156047
40	0x3d3d80c6	0.046265386
41	0xbc73c450	-0.0148783475
42	0x3d05858a	0.032598056
43	0x3c3f978c	0.011693846
44	0xbe3ea887	-0.18618976
45	0x3ddeec21	0.10884882
46	0x3c4a3127	0.01234082
47	0xbe805bc4	-0.25070012
48	0x3ceabd9e	0.02865487
49	0xbd868e8d	-0.06570158
50	0xbd05eb4d	-0.032695103

o2o.weight f4 [51, 307]
0	0x3e9b0583	0.30277643
1	0x3e057793	0.13033895
2	0xbd8e0d65	-0.069361486
3	0x3c57e9f9	0.013178342
4	0xbd30d95a	-0.043176033
5	0xbd3d82fd	-0.0462675
6	0x3da173be	0.07883404
7	0xbd85612d	-0.065126754
8	0x3ef373de	0.47549337
9	0x3cf3d1a5	0.029763052
10	0xbd9ba459	-0.07599706
11	0x3e6b5385	0.22981079
12	0xbdd508dd	-0.10402081
13	0xbd0c3482	-0.034229763
14	0xbe1a2978	-0.15054882
15	0x3e4248f1	0.18973137
16	0x3e2f47ca	0.17117229
17	0xbe53e6b3	-0.20693474
18	0xbeb42372	-0.35183293
19	0xbf05988f	-0.5218591
20	0x3e6b7022	0.22991994
21	0x3e53a982	0.20670131
22	0x3e9c5cd0	0.3053956
23	0x3eb82ec8	0.3597319
24	0xbdd17182	-0.10226728
25	0x3df4952c	0.11942515
26	0xbea8a6ba	-0.32939702
27	0xbde1e3ff	-0.11029815
28	0xbe15704a	-0.14593616
29	0x3ba20c64	0.0049453247
30	0xbc9400cf	-0.018066792
31	0x3c74db77	0.014944903
32	0x3c7ae838	0.015314154
33	0xbe1d0b4b	-0.15336339
34	0xbef67959	-0.48139456
35	0x3d7a40c5	0.061096925
36	0x3e7aad98	0.24480283
37	0x3d98ca73	0.07460489
38	0x3d71528e	0.05891662
39	0x3de4617d	0.11151407
40	0x3dcaac35	0.09896127
41	0xbef6a8d1	-0.48175672
42	0x3d4488ab	0.0479819
43	0x3f292ef5	0.66087276
44	0x3ee8a8e2	0.45441347
45	0x3e67f86b	0.22653358
46	0xbebc35d0	-0.36759806
47	0x3e554059	0.20825328
48	0x3e9e1e77	0.30882618
49	0xbd96ea44	-0.07368901
50	0xbe82a612	-0.25517327
51	0x3e450056	0.1923841
52	0xbe58844d	-0.21144219
53	0xbeab0a86	-0.33406466
54	0x3de6dd9f	0.112727396
55	0x3e67d350	0.22639203
56	0x3d7126fc	0.05887507
57	0x3d73b5ad	0.05949943
58	0x3ea864da	0.32889444
59	0xbe524d4f	-0.20537303
60	0x3e579573	0.21053104
61	0xbf0ceff4	-0.5505364
62	0xbefc3279	-0.49257258
63	0xbe6e299d	-0.23258062
64	0x3c51bd55	0.012801488
65	0x3d345ab2	0.044031806
66	0x3da6bd6e	0.081415996
67	0x3e822908	0.2542193
68	0x3c7530bb	0.0149652315
69	0x3e0e05ca	0.13869396
70	0x3ea3a234	0.3195969
71	0xbe06dfaa	-0.13171259
72	0x3dcb5154	0.099276215
73	0x3e23814a	0.15967289
74	0x3e57394a	0.21017948
75	0xbc880c79	-0.01660751
76	0xbbb86c96	-0.005628179
77	0xbe3a8029	-0.18212952
78	0x3d3cf889	0.04613546
79	0xbe80db6e	-0.25167412
80	0xbf0b9cd3	-0.5453617
81	0xbe273635	-0.16329272
82	0xbd075427	-0.03303924
83	0xbe00cfea	-0.12579313
84	0xbc7202f2	-0.01477121
85	0x3e0f22d8	0.13978136
86	0x3e490ae8	0.19633067
87	0x3e16a869	0.14712681
88	0xbf229cf3	-0.63520736
89	0xbe1c4100	-0.1525917
90	0xbda94d51	-0.082667
91	0x3e9845e4	0.29740822
92	0xbe27ea63	-0.16398005
93	0xbe8c0af3	-0.27352104
94	0xbea12e7b	-0.31480774
95	0xbdf5bbaa	-0.11998685
96	0xbe8301fd	-0.25587454
97	0xbe63b63f	-0.2223749
98	0x3dd5d5a2	0.10441138
99	0x3da63b5a	0.08116789
100	0x3cc4f67d	0.024043316
101	0x3e9066d0	0.2820344
102	0x3e6c106b	0.23053138
103	0x3e231d3f	0.15929125
104	0x3e44c7ab	0.19216792
105	0x3dd7c06d	0.10534749
106	0xbec805d3	-0.39066944
107	0x3e11758c	0.14204997
108	0x3d44e232	0.04806728
109	0x3e855d01	0.2604752
110	0x3da9271c	0.08259413
111	0xbe5af13e	-0.21381089
112	0x3e5b037e	0.21388051
113	0x3e000068	0.12500155
114	0x3d86cb16	0.06581704
115	0xbed0e745	-0.40801445
116	0xbdf02400	-0.117256165
117	0x3c151817	0.009099982
118	0x3d5a3da5	0.053281445
119	0xbec92507	-0.39286062
120	0x3e139e82	0.14415935
121	0xbe1f86d7	-0.15578781
122	0x3e1fd3bc	0.15608114
123	0x3d29c7af	0.0414502
124	0xbf0e8fbd	-0.5568808
125	0x3d885312	0.066564694
126	0x3ee3db2f	0.4450316
127	0x3ddd9076	0.10818569
128	0x3d69865f	0.057012912
129	0x3da5b331	0.08090819
130	0x3e8d9521	0.2765284
131	0x3dafacc6	0.08577876
132	0x3cc23525	0.023706982
133	0xbe0114a4	-0.1260553
134	0xbe60818d	-0.2192442
135	0xbe4e0948	-0.20120728
136	0xbdd003b6	-0.10156958
137	0x3d1beb33	0.0380661
138	0x3ea62c56	0.324557
139	0x3e448233	0.19190292
140	0x3e54df0a	0.20788208
141	0xbe677513	-0.22603254
142	0xbe85cb82	-0.26131827
143	0xbdf5eb17	-0.120077305
144	0x3ba662af	0.005077682
145	0x3e704dbb	0.23467152
146	0x3e472685	0.19448288
147	0x3c939e05	0.018019686
148	0x3e88e7c8	0.26739335
149	0xbda8af36	-0.08236544
150	0xbd2790b7	-0.040909495
151	0x3e7c74f1	0.24653985
152	0x3d18e8e7	0.037331488
153	0x3df9c69e	0.12196086
154	0x3d2d8880	0.042366505
155	0xbe0a5879	-0.13510312
156	0xbe6c5483	-0.23079114
157	0x38395ce1	4.4193937e-05
158	0x3f0fd32c	0.561816
159	0xbe930da5	-0.28721347
160	0x3c7fc635	0.015611221
161	0xbe0b629a	-0.13611832
162	0x3d092ba9	0.033488903
163	0x3ee6fbc8	0.4511397
164	0x3c2c3aba	0.010512048
165	0x3e870096	0.26367635
166	0x3d10bdaa	0.035337128
167	0xbe57fafa	-0.21091834
168	0x3e5f049c	0.21779102
169	0xbe16b3fe	-0.14717099
170	0xbef0bcc3	-0.47019014
171	0x3eeeba84	0.46626675
172	0x3be05d74	0.006847078
173	0xbead6d6c	-0.33872545
174	0x3d6efed1	0.05834848
175	0xbc781de8	-0.015143849
176	0x3eb00664	0.34379876
177	0x3dd7ab61	0.10530735
178	0xbe28981c	-0.16464275
179	0x3f03f9cb	0.5155303
180	0x3efe4483	0.49661645
181	0xbd997b8e	-0.07494269
182	0xbe2ddef6	-0.16979584
183	0xbcfce9b2	-0.030873153
184	0x3ed0c693	0.407765
185	0xbee69d38	-0.45041823
186	0x3e892ff7	0.26794407
187	0xbeb7b8f8	-0.35883307
188	0xbda11000	-0.0786438
189	0xbe64c567	-0.22340928
190	0x3eba8d2e	0.36435837
191	0x3e512201	0.20423128
192	0xbe77a551	-0.24184157
193	0xbd67f43b	-0.0566294
194	0xbf376a6d	-0.7164677
195	0xbc665992	-0.014059441
196	0x3e57e6d2	0.21084145
197	0x3e91cbff	0.2847595
198	0x3ed9d306	0.4254381
199	0x3e66b83f	0.22531222
200	0x3e0e5d28	0.13902724
201	0x3ca06470	0.019579142
202	0xbdf80006	-0.121093795
203	0x3e5b4a6d	0.2141511
204	0xbe574d3b	-0.21025555
205	0xbe49e99c	-0.19718021
206	0x3db880c0	0.09008932
207	0xbdf13c80	-0.117791176
208	0xbca34e42	-0.019934777
209	0x3eab7e08	0.33494592
210	0x3e893886	0.26800936
211	0x3dfe2248	0.124088824
212	0xbdfaf477	-0.12253659
213	0xbda7d483	-0.0819483
214	0xbdabb75e	-0.08384584
215	0xbb9e6fe5	-0.004835116
216	0x3e4de27b	0.20105927
217	0xbe0719cc	-0.13193434
218	0x3e2ac324	0.16676003
219	0xbd18cf07	-0.03730681
220	0x3d96ec91	0.0736934
221	0xbe05299c	-0.13004154
222	0x3dc54968	0.09633142
223	0xbe79b55f	-0.24385594
224	0xbd988f6a	-0.07449229
225	0xbe0e1934	-0.13876802
226	0xbe8bc737	-0.27300426
227	0x3e53bcbc	0.20677465
228	0x3e2102bf	0.15723704
229	0xbcf22781	-0.029559853
230	0xbdaab90c	-0.08336076
231	0xbe352f6f	-0.17693876
232	0x3e9e1c98	0.3088119
233	0x3efb410e	0.4907307
234	0xbd3ea13d	-0.046540488
235	0xbe5ace35	-0.21367724
236	0xbc3b46df	-0.011430471
237	0x3d9dcc37	0.077049665
238	0xbe2db587	-0.16963778
239	0xbed93a95	-0.42427507
240	0xbf1c01b4	-0.609401
241	0xbd2af065	-0.041733164
242	0xbe82be91	-0.25536016
243	0x3da8672a	0.08222802
244	0xbee668b9	-0.45001772
245	0x3dc60900	0.09669685
246	0xbd44badb	-0.04802976
247	0xbe11963f	-0.1421747
248	0xbdaebdfa	-0.08532329
249	0x3c4ed791	0.012624637
250	0x3e894b4b	0.26815256
251	0xbd7dcbde	-0.061962
252	0xbe902e0a	-0.28160125
253	0x3e55915d	0.20856233
254	0x3e5fbe1d	0.21849866
255	0x3e9dad73	0.30796394

o2o.bias f4 [51]
0	0x3dfeb266	0.124363706
1	0x3dc19234	0.09451714
2	0x3d895abe	0.06706761
3	0x3e055313	0.13019972
4	0x3d8f146c	0.06986317
5	0x3cd147ab	0.02554687
6	0x3daceb97	0.08443373
7	0xbd06c131	-0.032899085
8	0x3d20b161	0.03923166
9	0x3d3b8a45	0.04578616
10	0xbd2da92c	-0.042397663
11	0x3dc5be91	0.09655488
12	0x3de88f51	0.113554604
13	0x3d23e5b7	0.040013995
14	0xbd5d0131	-0.053956214
15	0x3bd313fe	0.0064415922
16	0x3d67f2b9	0.056627963
17	0xbb223e38	-0.0024756324
18	0xbcc2a3be	-0.023759719
19	0xbbd0b659	-0.006369394
20	0x3d76e0ba	0.06027291
21	0xbdb4087b	-0.0879068
22	0xbdeb09b9	-0.11476464
23	0xbce5645b	-0.028001955
24	0x3d4d2d53	0.050092053
25	0x3d4124a5	0.047154088
26	0xbd55579b	-0.0520855
27	0x3d8da291	0.06915773
28	0x3d8fbb17	0.070181064
29	0x3db762e6	0.0895441
30	0xbc474f65	-0.012164925
31	0x3d86c9d8	0.065814674
32	0xbcc972f4	-0.024590947
33	0xbc571d2b	-0.013129513
34	0x3c8a3fba	0.01687609
35	0x3d4d0d4f	0.05006152
36	0xbcc2c658	-0.023776218
37	0x3e028d6d	0.12749262
38	0xbdbbaffc	-0.09164426
39	0x3da5acc0	0.0808959
40	0x3dbc43f6	0.0919265
41	0x3d36047f	0.04443788
42	0xbe21267c	-0.15737337
43	0x3cbc436a	0.022981364
44	0xbd11f9b7	-0.035638537
45	0xbc9adadd	-0.01890319
46	0xbd4d1305	-0.050066967
47	0x3d30b199	0.04313812
48	0x3d0e2205	0.034700412
49	0xbd4ba1b6	-0.049714766
50	0x3e9999e2	0.30000216
